…
name: Transfert200_cyclegan
ndf: 64
ngf: 64
niter: 200
niter_decay: 200
no_flip: True
no_html: False
no_lsgan: False
norm: instance
output_nc: 3
phase: train
pool_size: 50
print_freq: 100
resize_or_crop: no_resize
save_epoch_freq: 5
save_latest_freq: 5000
serial_batches: False
use_dropout: False
which_direction: AtoB
which_epoch: latest
which_model_netD: basic
which_model_netG: resnet_9blocks
-------------- End ----------------
CustomDatasetDataLoader
dataset [UnalignedDataset] was created
#training images = 645
cycle_gan
---------- Networks initialized -------------
ResnetGenerator (
  (model): Sequential (
    (0): Conv2d(3, 64, kernel_size=(7, 7), stride=(1, 1), padding=(3, 3))
    (1): InstanceNorm2d(64, eps=1e-05, momentum=0.1, affine=True)
    (2): ReLU (inplace)
    (3): Conv2d(64, 128, kernel_size=(3, 3), stride=(2, 2), padding=(1, 1))
    (4): InstanceNorm2d(128, eps=1e-05, momentum=0.1, affine=True)
    (5): ReLU (inplace)
    (6): Conv2d(128, 256, kernel_size=(3, 3), stride=(2, 2), padding=(1, 1))
    (7): InstanceNorm2d(256, eps=1e-05, momentum=0.1, affine=True)
    (8): ReLU (inplace)
    (9): ResnetBlock (
      (conv_block): Sequential (
        (0): Conv2d(256, 256, kernel_size=(3, 3), stride=(1, 1), padding=(1, 1))
        (1): InstanceNorm2d(256, eps=1e-05, momentum=0.1, affine=True)
        (2): ReLU (inplace)
        (3): Conv2d(256, 256, kernel_size=(3, 3), stride=(1, 1), padding=(1, 1))
        (4): InstanceNorm2d(256, eps=1e-05, momentum=0.1, affine=True)
      )
    )
    (10): ResnetBlock (
      (conv_block): Sequential (
        (0): Conv2d(256, 256, kernel_size=(3, 3), stride=(1, 1), padding=(1, 1))
        (1): InstanceNorm2d(256, eps=1e-05, momentum=0.1, affine=True)
        (2): ReLU (inplace)
        (3): Conv2d(256, 256, kernel_size=(3, 3), stride=(1, 1), padding=(1, 1))
        (4): InstanceNorm2d(256, eps=1e-05, momentum=0.1, affine=True)
      )
    )
    (11): ResnetBlock (
      (conv_block): Sequential (
        (0): Conv2d(256, 256, kernel_size=(3, 3), stride=(1, 1), padding=(1, 1))
        (1): InstanceNorm2d(256, eps=1e-05, momentum=0.1, affine=True)
        (2): ReLU (inplace)
        (3): Conv2d(256, 256, kernel_size=(3, 3), stride=(1, 1), padding=(1, 1))
        (4): InstanceNorm2d(256, eps=1e-05, momentum=0.1, affine=True)
      )
    )
    (12): ResnetBlock (
      (conv_block): Sequential (
        (0): Conv2d(256, 256, kernel_size=(3, 3), stride=(1, 1), padding=(1, 1))
        (1): InstanceNorm2d(256, eps=1e-05, momentum=0.1, affine=True)
        (2): ReLU (inplace)
        (3): Conv2d(256, 256, kernel_size=(3, 3), stride=(1, 1), padding=(1, 1))
        (4): InstanceNorm2d(256, eps=1e-05, momentum=0.1, affine=True)
      )
    )
    (13): ResnetBlock (
      (conv_block): Sequential (
        (0): Conv2d(256, 256, kernel_size=(3, 3), stride=(1, 1), padding=(1, 1))
        (1): InstanceNorm2d(256, eps=1e-05, momentum=0.1, affine=True)
        (2): ReLU (inplace)
        (3): Conv2d(256, 256, kernel_size=(3, 3), stride=(1, 1), padding=(1, 1))
        (4): InstanceNorm2d(256, eps=1e-05, momentum=0.1, affine=True)
      )
    )
    (14): ResnetBlock (
      (conv_block): Sequential (
        (0): Conv2d(256, 256, kernel_size=(3, 3), stride=(1, 1), padding=(1, 1))
        (1): InstanceNorm2d(256, eps=1e-05, momentum=0.1, affine=True)
        (2): ReLU (inplace)
        (3): Conv2d(256, 256, kernel_size=(3, 3), stride=(1, 1), padding=(1, 1))
        (4): InstanceNorm2d(256, eps=1e-05, momentum=0.1, affine=True)
      )
    )
    (15): ResnetBlock (
      (conv_block): Sequential (
        (0): Conv2d(256, 256, kernel_size=(3, 3), stride=(1, 1), padding=(1, 1))
        (1): InstanceNorm2d(256, eps=1e-05, momentum=0.1, affine=True)
        (2): ReLU (inplace)
        (3): Conv2d(256, 256, kernel_size=(3, 3), stride=(1, 1), padding=(1, 1))
        (4): InstanceNorm2d(256, eps=1e-05, momentum=0.1, affine=True)
      )
    )
    (16): ResnetBlock (
      (conv_block): Sequential (
        (0): Conv2d(256, 256, kernel_size=(3, 3), stride=(1, 1), padding=(1, 1))
        (1): InstanceNorm2d(256, eps=1e-05, momentum=0.1, affine=True)
        (2): ReLU (inplace)
        (3): Conv2d(256, 256, kernel_size=(3, 3), stride=(1, 1), padding=(1, 1))
        (4): InstanceNorm2d(256, eps=1e-05, momentum=0.1, affine=True)
      )
    )
    (17): ResnetBlock (
      (conv_block): Sequential (
        (0): Conv2d(256, 256, kernel_size=(3, 3), stride=(1, 1), padding=(1, 1))
        (1): InstanceNorm2d(256, eps=1e-05, momentum=0.1, affine=True)
        (2): ReLU (inplace)
        (3): Conv2d(256, 256, kernel_size=(3, 3), stride=(1, 1), padding=(1, 1))
        (4): InstanceNorm2d(256, eps=1e-05, momentum=0.1, affine=True)
      )
    )
    (18): ConvTranspose2d(256, 128, kernel_size=(3, 3), stride=(2, 2), padding=(1, 1), output_padding=(1, 1))
    (19): InstanceNorm2d(128, eps=1e-05, momentum=0.1, affine=True)
    (20): ReLU (inplace)
    (21): ConvTranspose2d(128, 64, kernel_size=(3, 3), stride=(2, 2), padding=(1, 1), output_padding=(1, 1))
    (22): InstanceNorm2d(64, eps=1e-05, momentum=0.1, affine=True)
    (23): ReLU (inplace)
    (24): Conv2d(64, 3, kernel_size=(7, 7), stride=(1, 1), padding=(3, 3))
    (25): Tanh ()
  )
)
Total number of parameters: 11388675
ResnetGenerator (
  (model): Sequential (
    (0): Conv2d(3, 64, kernel_size=(7, 7), stride=(1, 1), padding=(3, 3))
    (1): InstanceNorm2d(64, eps=1e-05, momentum=0.1, affine=True)
    (2): ReLU (inplace)
    (3): Conv2d(64, 128, kernel_size=(3, 3), stride=(2, 2), padding=(1, 1))
    (4): InstanceNorm2d(128, eps=1e-05, momentum=0.1, affine=True)
    (5): ReLU (inplace)
    (6): Conv2d(128, 256, kernel_size=(3, 3), stride=(2, 2), padding=(1, 1))
    (7): InstanceNorm2d(256, eps=1e-05, momentum=0.1, affine=True)
    (8): ReLU (inplace)
    (9): ResnetBlock (
      (conv_block): Sequential (
        (0): Conv2d(256, 256, kernel_size=(3, 3), stride=(1, 1), padding=(1, 1))
        (1): InstanceNorm2d(256, eps=1e-05, momentum=0.1, affine=True)
        (2): ReLU (inplace)
        (3): Conv2d(256, 256, kernel_size=(3, 3), stride=(1, 1), padding=(1, 1))
        (4): InstanceNorm2d(256, eps=1e-05, momentum=0.1, affine=True)
      )
    )
    (10): ResnetBlock (
      (conv_block): Sequential (
        (0): Conv2d(256, 256, kernel_size=(3, 3), stride=(1, 1), padding=(1, 1))
        (1): InstanceNorm2d(256, eps=1e-05, momentum=0.1, affine=True)
        (2): ReLU (inplace)
        (3): Conv2d(256, 256, kernel_size=(3, 3), stride=(1, 1), padding=(1, 1))
        (4): InstanceNorm2d(256, eps=1e-05, momentum=0.1, affine=True)
      )
    )
    (11): ResnetBlock (
      (conv_block): Sequential (
        (0): Conv2d(256, 256, kernel_size=(3, 3), stride=(1, 1), padding=(1, 1))
        (1): InstanceNorm2d(256, eps=1e-05, momentum=0.1, affine=True)
        (2): ReLU (inplace)
        (3): Conv2d(256, 256, kernel_size=(3, 3), stride=(1, 1), padding=(1, 1))
        (4): InstanceNorm2d(256, eps=1e-05, momentum=0.1, affine=True)
      )
    )
    (12): ResnetBlock (
      (conv_block): Sequential (
        (0): Conv2d(256, 256, kernel_size=(3, 3), stride=(1, 1), padding=(1, 1))
        (1): InstanceNorm2d(256, eps=1e-05, momentum=0.1, affine=True)
        (2): ReLU (inplace)
        (3): Conv2d(256, 256, kernel_size=(3, 3), stride=(1, 1), padding=(1, 1))
        (4): InstanceNorm2d(256, eps=1e-05, momentum=0.1, affine=True)
      )
    )
    (13): ResnetBlock (
      (conv_block): Sequential (
        (0): Conv2d(256, 256, kernel_size=(3, 3), stride=(1, 1), padding=(1, 1))
        (1): InstanceNorm2d(256, eps=1e-05, momentum=0.1, affine=True)
        (2): ReLU (inplace)
        (3): Conv2d(256, 256, kernel_size=(3, 3), stride=(1, 1), padding=(1, 1))
        (4): InstanceNorm2d(256, eps=1e-05, momentum=0.1, affine=True)
      )
    )
    (14): ResnetBlock (
      (conv_block): Sequential (
        (0): Conv2d(256, 256, kernel_size=(3, 3), stride=(1, 1), padding=(1, 1))
        (1): InstanceNorm2d(256, eps=1e-05, momentum=0.1, affine=True)
        (2): ReLU (inplace)
        (3): Conv2d(256, 256, kernel_size=(3, 3), stride=(1, 1), padding=(1, 1))
        (4): InstanceNorm2d(256, eps=1e-05, momentum=0.1, affine=True)
      )
    )
    (15): ResnetBlock (
      (conv_block): Sequential (
        (0): Conv2d(256, 256, kernel_size=(3, 3), stride=(1, 1), padding=(1, 1))
        (1): InstanceNorm2d(256, eps=1e-05, momentum=0.1, affine=True)
        (2): ReLU (inplace)
        (3): Conv2d(256, 256, kernel_size=(3, 3), stride=(1, 1), padding=(1, 1))
        (4): InstanceNorm2d(256, eps=1e-05, momentum=0.1, affine=True)
      )
    )
    (16): ResnetBlock (
      (conv_block): Sequential (
        (0): Conv2d(256, 256, kernel_size=(3, 3), stride=(1, 1), padding=(1, 1))
        (1): InstanceNorm2d(256, eps=1e-05, momentum=0.1, affine=True)
        (2): ReLU (inplace)
        (3): Conv2d(256, 256, kernel_size=(3, 3), stride=(1, 1), padding=(1, 1))
        (4): InstanceNorm2d(256, eps=1e-05, momentum=0.1, affine=True)
      )
    )
    (17): ResnetBlock (
      (conv_block): Sequential (
        (0): Conv2d(256, 256, kernel_size=(3, 3), stride=(1, 1), padding=(1, 1))
        (1): InstanceNorm2d(256, eps=1e-05, momentum=0.1, affine=True)
        (2): ReLU (inplace)
        (3): Conv2d(256, 256, kernel_size=(3, 3), stride=(1, 1), padding=(1, 1))
        (4): InstanceNorm2d(256, eps=1e-05, momentum=0.1, affine=True)
      )
    )
    (18): ConvTranspose2d(256, 128, kernel_size=(3, 3), stride=(2, 2), padding=(1, 1), output_padding=(1, 1))
    (19): InstanceNorm2d(128, eps=1e-05, momentum=0.1, affine=True)
    (20): ReLU (inplace)
    (21): ConvTranspose2d(128, 64, kernel_size=(3, 3), stride=(2, 2), padding=(1, 1), output_padding=(1, 1))
    (22): InstanceNorm2d(64, eps=1e-05, momentum=0.1, affine=True)
    (23): ReLU (inplace)
    (24): Conv2d(64, 3, kernel_size=(7, 7), stride=(1, 1), padding=(3, 3))
    (25): Tanh ()
  )
)
Total number of parameters: 11388675
NLayerDiscriminator (
  (model): Sequential (
    (0): Conv2d(3, 64, kernel_size=(4, 4), stride=(2, 2), padding=(1, 1))
    (1): LeakyReLU (0.2, inplace)
    (2): Conv2d(64, 128, kernel_size=(4, 4), stride=(2, 2), padding=(1, 1))
    (3): InstanceNorm2d(128, eps=1e-05, momentum=0.1, affine=True)
    (4): LeakyReLU (0.2, inplace)
    (5): Conv2d(128, 256, kernel_size=(4, 4), stride=(2, 2), padding=(1, 1))
    (6): InstanceNorm2d(256, eps=1e-05, momentum=0.1, affine=True)
    (7): LeakyReLU (0.2, inplace)
    (8): Conv2d(256, 512, kernel_size=(4, 4), stride=(1, 1), padding=(1, 1))
    (9): InstanceNorm2d(512, eps=1e-05, momentum=0.1, affine=True)
    (10): LeakyReLU (0.2, inplace)
    (11): Conv2d(512, 1, kernel_size=(4, 4), stride=(1, 1), padding=(1, 1))
  )
)
Total number of parameters: 2766529
NLayerDiscriminator (
  (model): Sequential (
    (0): Conv2d(3, 64, kernel_size=(4, 4), stride=(2, 2), padding=(1, 1))
    (1): LeakyReLU (0.2, inplace)
    (2): Conv2d(64, 128, kernel_size=(4, 4), stride=(2, 2), padding=(1, 1))
    (3): InstanceNorm2d(128, eps=1e-05, momentum=0.1, affine=True)
    (4): LeakyReLU (0.2, inplace)
    (5): Conv2d(128, 256, kernel_size=(4, 4), stride=(2, 2), padding=(1, 1))
    (6): InstanceNorm2d(256, eps=1e-05, momentum=0.1, affine=True)
    (7): LeakyReLU (0.2, inplace)
    (8): Conv2d(256, 512, kernel_size=(4, 4), stride=(1, 1), padding=(1, 1))
    (9): InstanceNorm2d(512, eps=1e-05, momentum=0.1, affine=True)
    (10): LeakyReLU (0.2, inplace)
    (11): Conv2d(512, 1, kernel_size=(4, 4), stride=(1, 1), padding=(1, 1))
  )
)
Total number of parameters: 2766529
-----------------------------------------------
model [CycleGANModel] was created
create web directory ./checkpoints/Transfert200_cyclegan/web...
(epoch: 1, iters: 100, time: 0.787) D_A: 0.415 G_A: 0.723 Cyc_A: 3.798 D_B: 0.611 G_B: 0.959 Cyc_B: 3.305 
(epoch: 1, iters: 200, time: 0.796) D_A: 0.169 G_A: 0.236 Cyc_A: 3.764 D_B: 0.352 G_B: 0.323 Cyc_B: 3.071 
…
